model.pt (torch, 28849 bytes, 7 tensors)

backbone.0.weight f4 [64, 23]
000000 ab cf ff 3d 23 a6 8a bd be 9a 54 3e 3e 01 08 bd
       0.124907814 -0.06769969 0.20762154 -0.03320431
000010 e6 ac 07 3e 6f bd 96 bc e2 ab 55 3e 6d aa 24 3c
       0.1324955 -0.018400876 0.2086635 0.010050398
000020 e2 e5 f1 3d 3e 39 db bd 38 40 06 be d9 19 0b be
       0.11811425 -0.107042775 -0.13110435 -0.13584079
000030 4b f4 a6 3c 19 2b 17 be b8 ec 2c bc 4d 1a 1d be
       0.02038016 -0.14762534 -0.010554485 -0.15342064
000040 4a 2c 25 be 3d dc 26 3e 01 90 13 3d 22 14 00 be
       -0.16130176 0.16294952 0.036026005 -0.1250768
000050 66 31 d1 3d 53 03 e0 3c 12 8c 4e be 11 f6 49 3e
       0.102145 0.027345335 -0.2017062 0.19722773
000060 76 c2 4a be c2 8c 02 be 97 02 e7 3d eb 1a 16 be
       -0.19800743 -0.12749007 0.11279791 -0.14658706
000070 49 db 05 be ee 16 38 be 73 57 4d be 38 13 16 3e
       -0.13071932 -0.17977497 -0.2005289 0.14655769
000080 36 e1 e0 bd 62 cb 52 3c bc ea b2 bc 27 ea fd 3c
       -0.109804556 0.012865873 -0.021840446 0.030995442
000090 6f 80 08 be 1f 95 45 3e 78 b8 0e be 49 69 1b be
       -0.13330244 0.19295166 -0.13937557 -0.15176882
0000a0 69 d6 9d bd 8f 8e a1 3d 4a 2c 80 3d 04 24 58 3e
       -0.07706911 0.07888519 0.062584475 0.21107489
0000b0 8e d3 9f bd 3b dd 46 3d 8d 6d af 3d 49 c4 44 3e
       -0.07804023 0.048550826 0.08565817 0.19215502
0000c0 de 31 84 bb de f0 e1 bc eb dc f2 bd 3c 52 ca bd
       -0.004034265 -0.027580675 -0.11858543 -0.09878966
0000d0 81 63 68 be 7f 1d 60 be b8 4a a5 b7 16 22 49 3e
       -0.22694208 -0.21886252 -1.9704326e-05 0.19641909
0000e0 1f c0 66 3c 0b b8 49 bd 02 35 0c 3a 13 ab b2 3c
       0.014083891 -0.049247783 0.0005348475 0.02181009
0000f0 84 f9 46 3d ea 18 24 3e 39 04 08 3e 29 53 6b 3d
       0.0485778 0.16025129 0.13282861 0.057452355
000100 f2 57 28 be 9c ad fd 3d 52 30 70 3c 91 5b 1d 3e
       -0.16439798 0.12386629 0.014659958 0.15366961
000110 21 69 28 3e 8a b2 49 3e 9c 4c 55 3e 39 d8 35 be
       0.16446353 0.19697013 0.20830005 -0.17758264
000120 fe 03 3d 3e 3f 91 ee 3c 6c 6c 43 3c 55 7e a6 bc
       0.18458554 0.029121993 0.011927705 -0.020323912
000130 e4 68 10 be 6e 12 48 3d 14 e7 d5 bd 4a f4 03 be
       -0.14102513 0.0488457 -0.10444465 -0.12886158
000140 24 de 57 bc 63 6b 09 3e 48 15 44 be dd 63 1a 3c
       -0.013175521 0.13419871 -0.19148743 0.009423223
000150 57 96 9d bc 3d ce 38 be 83 4a 58 bd 65 67 29 3e
       -0.019236727 -0.18047424 -0.052805435 0.16543348
000160 6f 8e c4 bd c8 b4 2d be e9 91 bf bc 21 1d de bd
       -0.095974796 -0.16963494 -0.023385005 -0.108454
000170 89 27 30 3d ed c6 51 3c dd e5 17 be 4b d6 ac bd
       0.043006454 0.012803775 -0.1483378 -0.08439311
000180 2b ad 1c 3e c1 2d 3d 3e 76 4e 0b be 34 96 58 3e
       0.15300433 0.18474485 -0.13604149 0.21151048
000190 9b 42 2f be d3 7a 41 3e 40 2b a8 3c f7 3d 72 bd
       -0.17115252 0.1889451 0.020528436 -0.059141126
0001a0 07 ff 23 be 74 b3 a8 bd 5f 37 30 be 8f 8c 4a 3d
       -0.16015254 -0.08237353 -0.17208622 0.049450453
0001b0 21 0a 8d 3d 00 82 3f be 92 bb 71 b9 f5 51 f2 3c
       0.068866976 -0.18701935 -0.00023053426 0.029580096
0001c0 19 28 10 3d f2 ea c1 3d f5 53 02 be 4a 72 2b be
       0.03519449 0.094686404 -0.1272734 -0.16742817
0001d0 ff f4 c0 3d 87 7d 1b bc 53 79 ba 3d c6 32 dc 3d
       0.09421729 -0.009490377 0.09105172 0.10751872
0001e0 66 05 42 be 23 c3 d8 ba 70 bd ab 3d 78 ca c8 bd
       -0.18947372 -0.0016537647 0.08385742 -0.09804243
0001f0 66 50 fa 3d c4 6a c1 ba 6e 34 1d 3e 8b 76 b3 bd
       0.12222366 -0.001475655 0.15352032 -0.08762845
000200 d5 e0 ea bb 0d 1c d8 bc dc 09 2e 3e 9f 63 b5 3d
       -0.0071679153 -0.026380563 0.16995949 0.08856892
000210 55 46 8b bd c8 5f 40 bc 04 96 3c be 6e b7 05 3d
       -0.06800524 -0.011741586 -0.18416601 0.032645635
000220 c1 4d 20 3c ab b9 48 3d 13 70 e7 3d c8 44 3a 3d
       0.009784163 0.04900519 0.11300673 0.04547575
000230 bd 21 4d bd 4d c7 99 bd db ee 24 bc c9 03 52 3e
       -0.050081003 -0.07508717 -0.010066713 0.20509256
000240 11 95 3b be 41 a4 8f 3d 08 87 1e bd c8 ca 1d 3e
       -0.18318583 0.07013751 -0.038702995 0.15409386
000250 48 5e e0 bd af 08 be 3d 4b f1 de bd e6 17 1e be
       -0.10955483 0.09279 -0.10885867 -0.15438804
000260 46 00 0b 3e 9c af c2 bd 95 ed 8a ba e1 95 c2 3d
       0.13574323 -0.09506151 -0.0010599369 0.095012434
000270 2b c9 9c bd 62 76 30 be f9 10 f7 3d 8f ec 56 3c
       -0.07655557 -0.1723266 0.12063784 0.013117923
000280 7b da 4a be b6 e1 a2 bd 90 dc f1 bd 54 fa 9f bd
       -0.19809906 -0.07953207 -0.11809647 -0.07811418
000290 d0 a0 d9 bc 94 45 4b 3e 11 6e 00 be 37 dd 57 be
       -0.02656594 0.1985076 -0.12541987 -0.2108048
0002a0 e5 3a 49 3d 73 9f a8 bd e3 50 b6 3c 27 98 f3 3d
       0.04912843 -0.082335375 0.022255367 0.11894255
0002b0 df 05 9f bc a3 fe fe 3d ae 55 8b 3d 20 ff 3e be
       -0.01941198 0.12450912 0.068034515 -0.1865201
0002c0 cf d6 70 be 68 3b 76 3d e1 19 80 bd 47 81 76 bd
       -0.23519443 0.060115248 -0.06254936 -0.060181882
0002d0 c2 c7 7e 3d e6 58 bf 3d cc f2 6b bd 16 a7 ff 3d
       0.062202223 0.09343128 -0.057604596 0.12483041
0002e0 a4 eb f4 bd 12 2e 87 bc fe cd 36 bd b9 47 4c be
       -0.119590074 -0.01650146 -0.044630043 -0.19949235
0002f0 09 53 5d 3d c0 c5 11 be f8 38 e8 3d 47 35 33 bd
       0.054034267 -0.14235592 0.11338991 -0.04375198
000300 67 0c 01 be 6f cc f4 3d d4 c8 53 be 99 8f f2 3d
       -0.12602387 0.11953055 -0.20682079 0.11843795
000310 5b 6d 2c be e0 e8 54 be 65 ce 50 be 46 55 d6 3d
       -0.16838591 -0.2079196 -0.20391233 0.10465483
000320 d4 6b a6 bc 74 85 5d be 6d f9 14 be 26 a6 62 3d
       -0.020315088 -0.2163294 -0.14548273 0.055334233
000330 51 e6 e6 3d 87 48 2e 3e e0 34 b9 bd df fd 0b 3d
       0.11274398 0.17019854 -0.09043288 0.034177657
000340 bf c4 3b 3d 17 d7 fc bd 29 a0 bd bd ac f6 b8 3d
       0.04584193 -0.12345713 -0.09259064 0.09031424
000350 d4 c0 3c bd 73 c2 0a 3e c4 69 07 be d0 f4 34 be
       -0.046082333 0.13550739 -0.1322394 -0.17671514
000360 86 6c a3 3d c9 f0 28 3d 96 31 1c be 1b f1 48 3e
       0.079796836 0.041245256 -0.1525329 0.19623224
000370 22 c6 14 3e 6d 15 37 3e 89 30 de bc c7 7d 01 3e
       0.14528707 0.17879267 -0.027122753 0.12645636
000380 9e b8 0b 3e 15 cd d8 3d 1c 0e 19 be d0 fa 52 3d
       0.13644645 0.10585991 -0.14946789 0.051508725
000390 4f ef eb bc 20 bb 11 bd 16 93 10 3e cd a2 fa 3d
       -0.028800635 -0.035578847 0.14118609 0.12238083
0003a0 6c cf 2c be b1 f8 2c 3e 98 84 e7 bd 9d 63 d2 bd
       -0.16876 0.16891743 -0.11304587 -0.10272906
0003b0 ba 4c 2c 3e f6 7f 3c 3d 82 d6 2f be e9 c9 ee 3d
       0.16826144 0.04602047 -0.17171672 0.11659605
0003c0 ef 52 02 bd 12 92 d5 bc 8c 58 d9 3d 83 2e 90 3d
       -0.031817373 -0.026070628 0.10612592 0.070401214
0003d0 a8 8c 28 3e 32 3a 3e be db 4a c5 3d da 30 2d bd
       0.16459906 -0.18576887 0.09633418 -0.042282917
0003e0 06 58 7b bc 55 42 8c 3d 63 c7 81 3d 6c 55 44 be
       -0.015340811 0.06848589 0.06336858 -0.19173211
0003f0 eb 49 e6 bd bd 0f 10 3e af c7 31 3e 1b 62 39 be
       -0.112445675 0.14068504 0.1736133 -0.1810383

backbone.0.bias f4 [64]
000000 04 cc 38 3e b3 fd 5a 3e 81 98 ba ba 1f 5e 0a 3e
       0.18046576 0.21385841 -0.0014236124 0.13512467
000010 d6 b1 55 3e f4 54 0c be ee 9f a4 3d e1 15 73 bd
       0.2086862 -0.13704282 0.08038317 -0.059347037
000020 09 16 25 be 9e f2 98 bb 70 92 98 3d 58 79 72 3d
       -0.16121687 -0.004667594 0.07449806 0.059197754
000030 25 b6 fc 3d 7f 3e b6 3d 76 af bf bd 6e 0b 38 be
       0.12339429 0.08898639 -0.093596384 -0.1797311
000040 09 46 d9 3d 8f 80 31 3e 72 8e 9a 3d da 65 45 3e
       0.10609061 0.17334197 0.075467005 0.19277135
000050 9c b8 18 be 26 cc 3a be 89 fb 2c 3e e9 f9 34 3e
       -0.14914173 -0.18241939 0.16892828 0.17673458
000060 22 ac 17 be 35 67 fc 3d b0 5b 44 3e e9 34 0a be
       -0.14811757 0.12324373 0.19175601 -0.13496746
000070 32 06 d0 bd ec 6b 03 be 83 91 08 3e 1b b5 d1 bd
       -0.10157432 -0.12834138 0.13336758 -0.10239621
000080 50 7f d5 bd d5 96 55 3d 70 f1 8c bd 34 3f ce 3d
       -0.104246736 0.052145798 -0.06881988 0.10070649
000090 99 87 3f 3e a0 9a bb bd 54 68 b1 bd de 09 39 3e
       0.1870407 -0.09160352 -0.08662477 0.1807017
0000a0 8d 88 33 3c 40 c8 8f 3d c9 55 05 3e 24 85 a8 bb
       0.010957849 0.070206165 0.13021006 -0.0051428247
0000b0 89 47 a5 bd 5e 93 29 bd 42 28 c5 bd c6 8e 08 3e
       -0.08070285 -0.041400306 -0.09626819 0.13335714
0000c0 b4 a1 0f be eb 64 f4 bd 60 7e 4e 3d 1c ec f6 bd
       -0.14026529 -0.11933311 0.05041349 -0.12056753
0000d0 a5 f4 84 bd 36 17 ee bd 1d ca f0 3d c7 a8 41 3e
       -0.06491975 -0.11625521 0.117573 0.1891204
0000e0 37 06 96 bd d4 5f bf 3d 7d c6 01 3d f6 fb 35 3e
       -0.07325404 0.0934445 0.031683434 0.17771897
0000f0 f3 63 ff 3d 55 8a 3d 3e b1 42 56 be b8 f6 5f 3e
       0.12470236 0.185098 -0.20923878 0.2187146

backbone.2.weight f4 [64, 64]
000000 6d 0b a3 3b ee 63 48 3d 17 ba 9d bc 77 4d 10 3d
       0.0049757273 0.048923425 -0.019253774 0.035230126
000010 ff 7c c8 3d fb cb cf bd 77 78 82 bd 07 4a 91 bd
       0.09789466 -0.10146328 -0.06370633 -0.07094198
000020 d2 7d e0 bc 92 86 c1 bd 2f 95 db 3d c9 83 c0 3d
       -0.027403746 -0.094494954 0.10721814 0.09400136
000030 9f fc 37 3b 81 76 00 be b4 93 2d 3c b0 9a 87 3d
       0.0028074158 -0.12545206 0.010594297 0.06621301
000040 65 ad b2 bd f2 8d dd 3d 02 28 42 3d 45 e5 64 bd
       -0.08724479 0.108180895 0.047401436 -0.05588271
000050 11 fe cb bd fc 1c db bd f0 e2 41 3c e2 ee bc bc
       -0.09960569 -0.10698888 0.011833891 -0.023063127
000060 46 ee c3 bd 98 70 da bc c1 a3 56 bb 7d 58 42 bd
       -0.095669314 -0.026665017 -0.0032751414 -0.04744767
000070 64 bc c4 3b 5e b4 07 3d cc df db 3d 06 f1 73 bd
       0.006003903 0.033130996 0.10736045 -0.05955603
000080 74 3a 95 3d 35 fc 00 bd 6b f5 bc bd b1 b8 00 3e
       0.0728654 -0.031490523 -0.09226497 0.12570454
000090 bc e2 68 bd 37 6c c5 3d 08 03 8e 3d c3 b9 d8 bc
       -0.056856856 0.09639781 0.06934172 -0.026455766
0000a0 6f ba 91 bc 06 76 9d 3c ba d8 d0 3d d0 4a 6d bc
       -0.017789094 0.019221317 0.10197587 -0.014483169
0000b0 b6 b6 dc bd ef 54 07 3d 71 58 c6 bd 36 8d b7 bd
       -0.10777037 0.033039983 -0.096848376 -0.08962481
0000c0 14 e7 37 bd 17 08 32 bd 7a d6 06 3d 63 ca 43 3d
       -0.044898108 -0.043464746 0.032919385 0.047800433
0000d0 09 66 eb 3d 84 5b e5 3d 17 1b 61 bd f5 f9 89 3b
       0.11494071 0.11199096 -0.054957476 0.0042107054
0000e0 e9 33 e8 3d 67 76 fe bd 8d b4 29 3b c5 06 ac bd
       0.11338026 -0.12424927 0.002589497 -0.08399729
0000f0 28 8b 1a 3d db 6d 30 bd fe 05 f5 bc e6 cb e0 3d
       0.037730366 -0.043073516 -0.029910084 0.109763905
000100 2d ca e2 bd f6 2f 28 3d f8 4e d4 bd 2c 11 db bc
       -0.11073718 0.041061364 -0.103666246 -0.026741587
000110 9c 4b bf bd 88 e2 80 bd ba 68 a6 3d cc 12 db bd
       -0.09340593 -0.062932074 0.08125444 -0.106969446
000120 ec 09 d9 bd ee 4d 90 3d bb c4 f3 bd 42 08 95 ba
       -0.105975956 0.07046114 -0.11902758 -0.0011370259
000130 32 31 8a bd 3e 07 03 be 98 71 6f 3d 49 94 9e 3d
       -0.067476645 -0.12795731 0.05845794 0.07743127
000140 4b ce 08 3e cd 5b 11 3d da 3a 1a bd 46 8b f7 3d
       0.13359945 0.03548794 -0.03765378 0.12087111
000150 b9 bd 95 3d 42 95 b1 3d f1 bc c1 3d 70 9c 09 bd
       0.07311577 0.08671047 0.09459866 -0.033596456
000160 d0 09 4d 3d 51 e5 e7 bd 8b fa 9b bd 2f 24 18 bd
       0.050058186 -0.113230355 -0.07616147 -0.037143882
000170 09 ee 84 3d 24 20 39 3b 92 d7 b6 bd dc a4 f8 3d
       0.06490714 0.0028247917 -0.089278355 0.121408194
000180 6d d5 e2 bd 93 d6 66 bd d3 38 9e 3d ae f5 ad 3d
       -0.11075864 -0.056356978 0.07725682 0.08494125
000190 d8 ce c5 3d ec aa b7 3d 1b 6a 2a 3d d9 67 d2 3d
       0.09658593 0.08968148 0.041605096 0.102737136
0001a0 7e d4 d4 bd f4 d0 e8 bc 68 4b ae bc 6a e4 05 3d
       -0.10392092 -0.02841995 -0.02127619 0.032688536
0001b0 0b 66 a0 3d 39 9c 0f bd 0d ea ea bd 2c 1f aa bd
       0.07831963 -0.035061095 -0.11470423 -0.08306727
0001c0 8a fe 65 bd 0d b4 6e bd b9 08 8e bc e3 58 02 be
       -0.05615095 -0.05827718 -0.017338144 -0.1272922
0001d0 d1 b2 cc 3d 58 22 97 bc 38 74 a2 3c 99 a2 2e bd
       0.09995044 -0.018448994 0.019830808 -0.042635534
0001e0 14 c1 ed 3c 32 95 fd bd 74 f6 b1 bd 7f b8 88 3c
       0.02902273 -0.123819724 -0.08689585 0.016689537
0001f0 96 25 e7 3c 6e 8b 66 bd 6c ba ba 3d e1 40 1b bd
       0.028216165 -0.056285314 0.091175884 -0.03790367
000200 9c e5 e2 bd 4a 13 59 3b 4c f3 a2 3d 67 70 ee bd
       -0.11078951 0.003312307 0.079565614 -0.11642533
000210 9e eb 17 bc d6 a8 dc bd 57 76 ec 3d ef 00 18 be
       -0.009272484 -0.107743904 0.11546009 -0.14844106
000220 ff 24 af 3d 47 52 03 be 79 16 55 3d a6 9f 57 bd
       0.08551978 -0.12824355 0.052023385 -0.052642487
000230 ef 19 b9 bd 22 7f a1 3d e5 7e 91 b9 b8 bb 95 bd
       -0.090381496 0.07885577 -0.000277511 -0.07311195
000240 3f 11 32 3d 23 b2 95 bd d9 14 a1 3d 88 9b 76 3d
       0.04347348 -0.073093675 0.078653045 0.06020692
000250 d7 b9 dd 3d 54 3f 49 3c 85 3b bb bd 67 27 d9 3d
       0.10826462 0.012283165 -0.09142212 0.106032185
000260 bf bf ab bc 5c 1a e8 bb bc 08 dc bc a2 1e 83 bd
       -0.020965455 -0.0070832204 -0.026859634 -0.06402327
000270 f1 ce 83 3d 65 83 4e bc 2d 35 0a 3c ed 82 39 bd
       0.06435955 -0.012604569 0.00843553 -0.045290876
000280 a6 90 6a bc f3 ed a4 3d 72 63 f2 bd e0 7e 92 3d
       -0.014316713 0.08053198 -0.11835374 0.07153106
000290 ff 0e fd bd 0a cf b3 bc 1e 43 d6 3d 98 d4 cf bd
       -0.12356376 -0.02194931 0.1046202 -0.10147971
0002a0 52 48 25 bc dc 72 2d 3d 72 be 72 3d 6e fe a5 bd
       -0.010088043 0.042345867 0.059263654 -0.08105169
0002b0 98 f5 09 bd d6 23 70 3d eb c4 78 3d f8 d5 ed bd
       -0.033681482 0.058627926 0.06073467 -0.11613077
0002c0 93 b0 84 3c ca 43 12 3d 4d fe e2 bd 63 db cb 3d
       0.016197478 0.03570918 -0.1108366 0.09953954
0002d0 bb b6 0e 3e 2c 10 7c 3c ed 0f 21 3d be 15 5d bd
       0.13936894 0.015384715 0.03932183 -0.053975813
0002e0 47 c2 88 3d fe f4 74 bd 3f ab 8f bd 3e 18 87 bd
       0.066776805 -0.059803955 -0.070150845 -0.06596421
0002f0 92 e0 ae bd 2f a1 d6 bd 32 d0 68 3d e3 4c eb 3d
       -0.08538927 -0.10479962 0.056839176 0.11489274
000300 23 18 83 bc ec ca 3b 3d 0a 04 e1 bb c6 62 b9 3d
       -0.01600272 0.04584782 -0.0068669366 0.09052043
000310 56 c1 bc 3c a8 c9 03 be 57 23 fa 3c 60 f4 c5 bd
       0.023041409 -0.12869895 0.03053443 -0.096657515
000320 8e ee 0d 3d 63 14 a0 3d 44 ac 0c be 53 3c 99 3d
       0.03465133 0.078163885 -0.13737589 0.07482209
000330 b1 c9 8d 3d 5a 12 f9 bd 81 fd ef bc 30 6b 87 3d
       0.06923235 -0.121617034 -0.029295685 0.06612241
000340 fc c1 01 bd 40 d5 e8 3b 53 29 4c 3d a4 34 dd 3d
       -0.03167914 0.0071054995 0.049844097 0.10801056
000350 a9 64 e8 3d 95 30 e9 bd a5 03 c8 3c 50 48 c1 3b
       0.113473244 -0.113862194 0.0244158 0.005898513
000360 54 ca 21 bd 3c 62 0d bd c8 79 5b 3c 26 7e c2 bb
       -0.039499596 -0.03451751 0.013395734 -0.005935448
000370 fc 9e cd 3d 92 af a7 bd 18 ab e6 bc 8a 30 d2 bd
       0.100400895 -0.08187784 -0.028157756 -0.10263164
000380 74 08 d6 3a 30 27 22 bd af a0 41 bc 1d 96 25 bd
       0.0016329424 -0.039588153 -0.011818095 -0.040426362
000390 51 ce df bd 4c 73 97 bd 46 9c f1 bd 7b 4f e2 bd
       -0.109280236 -0.07395038 -0.11797385 -0.11050316
0003a0 b0 26 a1 3d 52 6a 6e bd f7 68 b6 bc 71 c9 e2 bd
       0.07868707 -0.058206864 -0.022266848 -0.11073578
0003b0 e9 69 75 bc 69 eb 29 3c 3b 09 a4 3d 36 57 a3 3d
       -0.014978864 0.010371068 0.08009573 0.079756185
0003c0 e7 4c 1e bd e7 e1 42 3c c0 f0 cf bd 5a 37 9c bd
       -0.03864756 0.01189468 -0.10153341 -0.07627745
0003d0 8a 20 07 bd 11 b5 8a 3d f3 76 e9 3d 71 af ad bd
       -0.032990016 0.06772817 0.11399641 -0.084807284
0003e0 6f 99 53 3d 29 92 27 3d 6b 48 be 3d 7c a3 83 3c
       0.051659998 0.040910874 0.092911564 0.016069166
0003f0 19 56 9c bd 30 14 8d 3d 56 bb 21 bd 28 a5 35 bd
       -0.07633609 0.06888616 -0.039485298 -0.04434696

backbone.2.bias f4 [64]
000000 af 41 25 bd 83 3b f8 3d e4 89 99 bd ff b3 c4 3d
       -0.040345844 0.12120726 -0.07497004 0.09604644
000010 92 31 85 3c d9 05 72 bd 6e 9a b4 bd 40 17 a3 3d
       0.016258989 -0.059087608 -0.088185176 0.07963419
000020 90 f1 e6 bd 4f f0 b0 bb 10 93 01 be 5b 09 85 3b
       -0.11276543 -0.0053997408 -0.12653756 0.004059953
000030 54 30 e5 bc 49 b1 b3 bc 90 95 e3 3d 2f 0d f1 3d
       -0.027977146 -0.021935122 0.11112511 0.11770093
000040 14 c9 be bd 36 84 13 bc 48 dd 21 bd 9d 30 58 3d
       -0.09315696 -0.0090036895 -0.03951767 0.052780736
000050 5f 87 aa bc 63 c6 a2 bd 7a 38 f3 bd 65 6b 29 bd
       -0.020816503 -0.079479955 -0.118760064 -0.041362185
000060 3e 4b a6 bc 7a e2 ce 3d 68 13 f7 bd e5 7c 0e 3c
       -0.02029955 0.10101791 -0.12064248 0.008696769
000070 28 5a dc bd 27 e8 ea bd 6f ae a6 bd f4 db e4 3d
       -0.107593834 -0.11470061 -0.08138739 0.11174765
000080 47 cf 88 3d 11 e1 22 bd 42 58 bb bc 6f 09 d8 bd
       0.0668016 -0.03976542 -0.022869233 -0.10548674
000090 f5 76 b7 3d bd 33 fd bd 76 c4 a2 3a d4 0b 6f 3c
       0.08958236 -0.12363384 0.0012418169 0.014590222
0000a0 b2 52 a5 3c cd 44 84 3d f4 61 6e bd a9 c1 d3 3d
       0.020181034 0.06458435 -0.058198884 0.10339672
0000b0 f5 44 05 bd 9e d2 5a 3d 27 f8 24 3d 5c a0 f0 bd
       -0.032536466 0.053423516 0.04027572 -0.11749336
0000c0 cf 46 eb bd 6c cc 13 bc f4 7f 86 bd 7c a9 f3 bd
       -0.11488115 -0.009020906 -0.06567374 -0.11897561
0000d0 ec 94 57 3d df ed 87 bd fd 8c c7 bd 00 a0 8a bd
       0.052632257 -0.06637167 -0.09743688 -0.06768799
0000e0 32 46 67 3b a3 98 ee ba 83 ac df bc 72 7f 97 bd
       0.0035289642 -0.0018203448 -0.02730394 -0.07397355
0000f0 d7 30 e8 3c 64 ad 3d 3d f5 bb df bd 95 6c 00 3e
       0.028343601 0.046307936 -0.10924522 0.12541421

policy_head.weight f4 [10, 64]
000000 8e c9 04 3d 79 1f d4 3d e1 77 a8 bd 13 88 79 bd
       0.03241878 0.103575654 -0.0822599 -0.060920786
000010 99 36 df 3d c6 e3 a9 bd db cf ae bd b8 06 95 3d
       0.108990856 -0.082953975 -0.08535739 0.07276672
000020 61 32 dd 3d b5 af 6c 3d 74 b0 ac 3c d2 ca ae bd
       0.10800625 0.057784755 0.021080233 -0.08534779
000030 82 5d 4f 3d 68 5a b5 3c 99 61 3c bd 7c 10 99 3d
       0.050626285 0.022137836 -0.045991514 0.07473847
000040 50 89 e2 3c 3b 53 6e 3c 1f 70 c0 bd ec b0 14 3c
       0.027653366 0.014546211 -0.093963854 0.009075385
000050 4b eb 6b 3c 18 9e 0f 3d 2e d6 1b 3b 17 a4 aa 3d
       0.01439936 0.03506288 0.0023778784 0.08332079
000060 ff 2a f6 3d 37 50 b8 bd 96 ef 94 bd 8c 41 3d bd
       0.120199196 -0.08999675 -0.0727226 -0.04620509
000070 40 aa ad bd ee 40 50 bd a1 48 b9 bd 69 9b c0 3d
       -0.08479738 -0.05084317 -0.09047056 0.09404642
000080 55 c3 8b 3d cc b5 b5 3d 4f d7 8a bd a0 67 19 bd
       0.06824366 0.088725656 -0.06779348 -0.03745234
000090 e4 bd 8a 3d 3a 7f bc bd 41 52 c5 bd b5 07 fd bd
       0.067745 -0.09203954 -0.09634829 -0.123549856
0000a0 7b 72 72 bd 12 31 50 bd 89 89 32 bd 55 d7 7a 3d
       -0.05919121 -0.050828047 -0.043588195 0.061240513
0000b0 34 c2 36 bc 5d 4b cc 3d 73 f3 d6 bd 22 72 a4 3d
       -0.0111547 0.09975312 -0.10495653 0.080295816
0000c0 41 f7 47 3c ab 89 c0 bb 8c 6e 80 bd fc f2 69 bd
       0.012204946 -0.0058757863 -0.06271085 -0.057116494
0000d0 26 0d 8f bd be cc 25 bd fe dd 50 bd 3a 5d 0c 3d
       -0.0698493 -0.04047846 -0.05099296 0.034268595
0000e0 55 1f 9d 3d 59 fa 44 3d b1 0d 80 bd 18 c9 98 3d
       0.07671992 0.048090313 -0.062526114 0.074602306
0000f0 c8 76 da bd be 53 86 3d ff 0b d9 bd fe c4 8a bc
       -0.10667187 0.06558941 -0.10597991 -0.016939636
000100 eb 9e aa ba 17 76 2d bc da 41 2d 3d 53 0d 05 39
       -0.0013017332 -0.010587237 0.04229913 0.00012688832
000110 73 f2 11 3d 79 6f 69 bd 3d cd 5f 3d 08 88 d1 3d
       0.03563161 -0.056991074 0.05463909 0.10231024
000120 b6 8d 9e bd 0f 20 39 3c 09 1b 40 bd 4a 6a 8c 3d
       -0.07741873 0.011299147 -0.046900783 0.068562105
000130 84 fe b6 bd bb 28 fe bd 25 68 80 bd 34 ed ed bd
       -0.08935264 -0.124101125 -0.06269864 -0.116175085
000140 04 eb 42 bd ad f0 f6 3c 90 78 dd 3c ca b0 6f 3d
       -0.04758741 0.03014406 0.027035028 0.05851821
000150 d7 6e 8b bd 0a 2f e3 bd 84 24 37 bd f9 c5 80 3b
       -0.068082504 -0.11092956 -0.04471256 0.00392985
000160 7e 1a b6 3c b8 12 79 bd 10 0c 5c bc 71 89 93 bd
       0.02222943 -0.060808867 -0.01343061 -0.07203949
000170 a0 c0 c9 3c 64 49 7e 3d e2 1d 86 bc 3b 5b cd bd
       0.024627984 0.06208171 -0.016371671 -0.100271665
000180 fc e5 30 bd e0 b2 82 3d df 30 80 b9 39 1a a8 bd
       -0.04318808 0.06381774 -0.00024450474 -0.082081266
000190 09 6f fe bd 47 06 98 3d b2 78 0f 3d b8 9c 41 bd
       -0.12423522 0.07423072 0.035027213 -0.0472686
0001a0 ab 36 56 bd be a5 9b bd 09 c4 52 bd aa 66 c8 3b
       -0.05229823 -0.07599972 -0.051456485 0.006115754
0001b0 da 16 18 bd 05 c9 37 3c e8 d6 18 3d 18 10 7a 3d
       -0.037131168 0.01121736 0.037314326 0.061050504
0001c0 2a 4f 82 3d 03 ff f4 bd 52 4b 30 3d fb f7 3f 3d
       0.063627556 -0.11962702 0.04304058 0.046867352
0001d0 ae 5d 85 bd 7b 7c e1 bd 43 bd 4b bd c1 8b 0a be
       -0.065120086 -0.11010071 -0.04974104 -0.13529874
0001e0 cc 26 40 bd 55 91 a3 bd 9b c8 d7 bd ca 5b 9a bd
       -0.046912 -0.07986704 -0.10536309 -0.075370386
0001f0 f4 94 b6 3d 80 32 76 3c 96 ea 7a bd 56 f9 ce bd
       0.08915129 0.015026689 -0.061258875 -0.10106151
000200 66 f4 07 3b e0 1e 04 b7 2b 96 b3 bd 36 ec 00 be
       0.0020745038 -7.875002e-06 -0.08768877 -0.12590107
000210 f6 1e 01 3e 24 ca 5d bd c1 95 2b bd 38 c4 07 bd
       0.12609467 -0.054147854 -0.041890863 -0.033146113
000220 eb cb 82 bd 0a 1e e9 3d c5 ad d1 bb 3d 24 8a 3c
       -0.063865505 0.113826826 -0.006398889 0.016862983
000230 53 c2 eb bd 6c b7 de 3d 71 b4 ca 3d 3c 4b ef 3d
       -0.11511674 0.10874829 0.09897698 0.11684272
000240 b8 57 3a bd 41 da 44 bc 08 74 e8 3d 46 5f 13 3d
       -0.04549381 -0.012014926 0.11350256 0.03597953
000250 78 00 57 3d 70 f2 16 3d b9 a8 e7 3d 19 11 92 3d
       0.05249068 0.0368523 0.11311478 0.07132167
000260 ae 38 43 3d 15 db fa bd 94 35 ab bd 46 2a 5d bd
       0.047661476 -0.12248818 -0.083598286 -0.053995393
000270 78 b5 a9 3c 2b e6 8f 3d 7f af ab 3b 78 fd 28 bd
       0.020716414 0.07026323 0.0052394266 -0.04125735
000280 55 55 00 bd 35 d5 e1 3d 63 4d 37 bd 8f c0 78 bd
       -0.03133138 0.11026994 -0.044751536 -0.060730513
000290 48 ba b0 bd 92 e6 e4 3d 1a 8d 9f 3d fa 7c 2f bd
       -0.0862928 0.1117679 0.07790585 -0.042843796
0002a0 40 f1 3f bd 35 f4 f0 bc ad 8c 36 bd 1c 9e ae bc
       -0.046860933 -0.029413322 -0.044567753 -0.021315627
0002b0 30 67 b6 3d 3d 55 9e bd 79 14 79 bd 00 02 95 3d
       0.089064 -0.07731102 -0.06081054 0.07275772
0002c0 01 7e 20 bd 14 2b 77 bd a0 9c d5 bd 19 e8 2e 3d
       -0.039182667 -0.060343817 -0.104302645 0.042701814
0002d0 68 6c 28 3d c1 51 93 bd 36 f1 56 bb 52 69 13 bd
       0.04111901 -0.07193328 -0.0032797582 -0.035989113
0002e0 f9 0d ee 3d d5 66 d3 bc 7c 4f 93 3d c9 d6 44 3d
       0.11623759 -0.02580587 0.07192895 0.048056398
0002f0 b3 fd 0e 3d c6 40 60 3d 8a 48 86 3d 2a 44 c5 bd
       0.034909915 0.054749273 0.065568045 -0.09632142
000300 81 a2 8c bd 11 31 48 bd 27 b2 fc bd 63 4f 83 3d
       -0.06866933 -0.04887492 -0.12338667 0.06411626
000310 4d ca 67 bd fb b0 a8 3c a4 c4 7b 3d 36 9e 6d bc
       -0.056589413 0.020592203 0.061466828 -0.014503052
000320 6b cc f7 bd a9 43 92 3d 11 f6 61 bd fa e0 4c 3d
       -0.120995365 0.071418114 -0.055166308 0.050019242
000330 f9 50 88 bd a9 3f 9a 3d b2 53 68 3d 76 70 de bd
       -0.06656069 0.075316735 0.056720443 -0.10861294
000340 80 bc 5e bc 48 63 ee bd 6b 90 b8 3d 4e 20 d5 3b
       -0.013594747 -0.1164003 0.090119205 0.006504095
000350 58 d5 ae 3d 3f 3a 1c bc 1e a1 9d 3c c3 ff 0d 3c
       0.08536786 -0.009535371 0.019241866 0.008666935
000360 a1 6d 4b 3d dd 3a 8f bd 38 29 e0 3c 8b 10 49 bd
       0.049665097 -0.06993649 0.027363405 -0.049088042
000370 86 6b a8 3d 3e 33 9e bc a3 53 bc bd 10 12 d5 3c
       0.082236335 -0.019311544 -0.0919564 0.02600959
000380 a9 88 bf bd b9 5a 73 3d 7b f7 b9 bd 65 c9 23 bc
       -0.09352238 0.05941269 -0.09080406 -0.009996747
000390 53 67 67 bc aa f1 96 3c 03 7c 84 3c 75 99 bb 3d
       -0.0141237555 0.018425781 0.016172415 0.09160129
0003a0 ef a1 0e 3c 5d 57 99 3d 26 01 3e bd 7e 37 44 3c
       0.0087056 0.07487366 -0.046387814 0.011976121
0003b0 cd 9c d5 3d ba 42 d2 3d b0 26 8d bb 42 b8 a2 bd
       0.10430298 0.10266633 -0.0043075904 -0.07945301
0003c0 e9 11 e2 bd 5b e1 86 3d 7c 21 55 3d 40 37 d4 bd
       -0.11038572 0.06585952 0.052033886 -0.103621006
0003d0 67 9a e0 bd 7f 06 59 bc 77 6b 8f 3d 4b 14 c6 3c
       -0.1096695 -0.013246178 0.07002919 0.024179598
0003e0 f2 27 83 3c 20 ae 2a bd 89 d5 87 3d 9d a3 7f bd
       0.016010258 -0.041669965 0.066325255 -0.062411893
0003f0 f2 3a e4 3d 97 b1 91 3c 88 9b 00 be 5e 54 5f 3d
       0.111440554 0.017784877 -0.1255933 0.05452382

policy_head.bias f4 [10]
000000 04 25 92 3d 87 81 15 bd bd 01 19 bc 71 f8 c9 bd
       0.071359664 -0.03650048 -0.009338793 -0.098618396
000010 a4 c8 cf 3d 82 94 ce 3c b9 a1 ae 3d ce d7 d3 bd
       0.10145691 0.025217298 0.0852694 -0.10343896
000020 e0 83 e3 3d a1 e2 1d 3c
       0.111091375 0.009636552

value_head.weight f4 [1, 64]
000000 20 9c a2 3c c5 e1 b1 3d dd ce 4e 3d 5d d9 ae 3d
       0.019849837 0.0868564 0.05049025 0.085375525
000010 2c 29 36 3d d7 d7 18 be 01 90 a6 bd 31 97 ff bc
       0.04447286 -0.14926086 -0.08132935 -0.031200023
000020 b7 a9 16 3b 40 f6 a8 bd e6 e6 9c 3d 86 58 90 3d
       0.0022989342 -0.082500935 0.07661228 0.070481345
000030 29 97 4e bb 9e 23 e8 3c 3b 69 df 3d 2f 7a e6 bd
       -0.0031523204 0.028337296 0.10908743 -0.112537734
000040 c6 4c a2 bd bc ef eb 3d 7d c6 fa 3d d8 15 c5 bd
       -0.079247996 0.11520335 0.1224489 -0.09623307
000050 79 61 6c 3d 1d fa c2 bd c4 6b 12 bd e7 71 78 bd
       0.057710145 -0.095203616 -0.035747305 -0.0606555
000060 7d 96 c6 3d 92 d6 0b bd 5c e1 45 bd 07 93 88 3d
       0.09696672 -0.034140177 -0.048310623 0.06668668
000070 0c d6 0f 3d a2 7f d9 3d 91 5c 08 be 94 9c ce 3c
       0.03511624 0.10620047 -0.13316561 0.025221147
000080 ea 6e 82 bd 3d c6 60 bd 37 18 6f 3d 4b 46 cb 3d
       -0.063688114 -0.054876555 0.058372702 0.09925517
000090 99 1b be bd 00 2a d7 3d d5 f4 15 3d 1c 92 c9 3d
       -0.092826076 0.10506058 0.036610443 0.09842321
0000a0 92 d5 41 3d f8 9e 66 3d d0 b6 54 bd 9e f8 b3 bd
       0.047322817 0.05630395 -0.051932156 -0.08787654
0000b0 e5 71 a0 bd 6d b0 db 3d da dd 46 3d 12 b3 aa bd
       -0.07834224 0.1072701 0.048551418 -0.08334936
0000c0 5b fd 04 bc 6e 14 40 bc a2 31 ed bc 07 5e b4 3d
       -0.008117045 -0.011723621 -0.02895433 0.08806997
0000d0 08 b4 29 3d 79 7a 72 bd 35 c3 d4 3b f1 fd 61 bd
       0.041431457 -0.05919883 0.006492997 -0.055173818
0000e0 37 84 0a bb 9e 47 b8 3d 29 6d a6 3d 66 07 dc 3c
       -0.0021135935 0.08998035 0.081262894 0.026858997
0000f0 52 95 ca bc 7f 33 9b 3d e5 6d 9e bd a6 46 6d bd
       -0.024729405 0.075781815 -0.077358045 -0.057928704
